faulty_device_detector/resources/cloudformation/lstm_model_2022-02-25.pth (torch, 70319 bytes, 17 tensors)

encoder.rnn1.weight_ih_l0 f4 [128, 1]
000000 6a 1c 7f be f8 4e 8e 3e c7 4b 01 3d 9a 4d 29 3c
       -0.24913183 0.27794623 0.031566408 0.010333443
000010 21 8f 84 be 92 13 41 bc f2 4f 14 bd 59 af 97 3d
       -0.2589045 -0.011784451 -0.036209054 0.07406492
000020 90 0b d2 3e 2b 1d 39 be 91 ae 21 3f 84 d9 1c 3f
       0.41024446 -0.18077533 0.6315699 0.612694
000030 d3 b4 39 3f 7c 99 d9 3d 19 06 f0 3b 0a 58 d1 3c
       0.7254154 0.10624978 0.0073249456 0.025554676
000040 21 50 53 3e 04 84 35 bd 27 ba 76 ba 77 bb fa bc
       0.20636036 -0.044315353 -0.0009411894 -0.030606968
000050 7f fd 3c 3c a8 65 03 3f dd 3c ac 3c ba 36 3f 3e
       0.011535048 0.5132699 0.021025116 0.1867322
000060 1b a0 96 3c 36 8e ae 3e 4c d2 c7 3d 68 3c c4 bc
       0.018386891 0.34092873 0.09756908 -0.023954585
000070 fc 51 8d 3e fd 1e c0 3d 1c 3c bc 3e 8c 21 8b 3e
       0.27601612 0.093809105 0.3676461 0.27174032
000080 db ab d3 3c 50 e5 28 be 9b 25 5f bc 56 ad fe 3c
       0.025838783 -0.16493726 -0.013619806 0.031088512
000090 9a a5 1c 3b f6 0f 12 bd 87 e5 8c 3e 78 ed e8 3c
       0.0023902417 -0.035659753 0.27518865 0.028433546
0000a0 c4 f6 94 3d 63 53 4b be b2 42 5e 3d 1e 51 b1 3e
       0.07273629 -0.19856028 0.054262824 0.346322
0000b0 92 73 d7 3e 8f 7a 1c bd f7 6f 95 3d 35 39 71 bd
       0.4208036 -0.03820282 0.07296746 -0.058892448
0000c0 5b 20 00 3d 6e 35 d1 3c 99 8a 8a 3d 96 02 f9 3c
       0.031280857 0.025538173 0.06764717 0.03039674
0000d0 f0 99 b2 3c 00 fd 8c 3e 54 42 82 3d d4 3e 75 3e
       0.021801919 0.27536774 0.06360307 0.23949748
0000e0 72 f0 b0 bc 09 f1 fa 3c 74 6d 08 3e a3 2a f5 3d
       -0.021599028 0.030632513 0.13323003 0.11971023
0000f0 27 b1 b1 bd 7e d9 74 3d 66 2c d8 3d 70 cb cd 3c
       -0.08676367 0.05977773 0.10555343 0.02512142
000100 cb 92 d7 bd 42 fc e0 be 30 6a 27 3e b8 5a 78 be
       -0.105260454 -0.43942457 0.16349101 -0.24253356
000110 19 c3 cd 3d db 18 10 3e 5c 87 45 bb 7d 27 ea 3e
       0.100469775 0.14071982 -0.0030140495 0.45733252
000120 ef ec 5e 3e 26 0a 71 be bd d5 30 bf 78 0b 01 bf
       0.2177007 -0.23539028 -0.6907614 -0.50408125
000130 0e 1a 0c bf 52 8c 8e 3e 0d f1 bb 3d 7f e4 d4 3e
       -0.54727256 0.2784143 0.09176836 0.4158058
000140 47 b4 9e bd fa 2e 28 bf 66 5b 94 3e 7e fb 66 be
       -0.07749229 -0.6569668 0.2897598 -0.22556874
000150 75 01 45 3f 8f 5b ff be f7 a9 a7 3d 12 1f 5e bd
       0.7695535 -0.4987454 0.08186715 -0.05422885
000160 d6 44 fa 3d cc 66 46 be e4 e8 21 bd e3 dc c5 be
       0.12220161 -0.19375151 -0.039528742 -0.38645086
000170 c7 75 40 3e f3 b4 02 3f d1 6b 59 3e 2a ac bf be
       0.18794928 0.51057357 0.21232535 -0.37436038
000180 63 87 65 bd 23 b2 ec 3c fe e7 c5 be de e2 3e 3d
       -0.056037318 0.028893536 -0.38653558 0.046603076
000190 17 d2 2f bc f2 8e 78 bb a3 fa cf bd 80 74 6f 3d
       -0.010731242 -0.0037927 -0.10155227 0.058460712
0001a0 6e a5 72 be 76 39 5a be f0 fd 48 3d a1 4b d7 bc
       -0.23695919 -0.21310982 0.0490703 -0.02628118
0001b0 b5 93 09 bd 58 8d 15 bd 4e 82 73 3e 17 49 91 3d
       -0.03358813 -0.03651175 0.23780176 0.07094019
0001c0 32 d3 5f bd 51 ee b7 3d 1b ec d1 3c 75 5e 38 3d
       -0.05464477 0.08981002 0.02562528 0.045011956
0001d0 aa 28 2b 3f 71 d7 56 bd ac ea a5 3b 68 07 0b 3d
       0.66858923 -0.052451555 0.0050633755 0.03394261
0001e0 6e 2e 2f 3d aa 1a da 3d f2 d4 81 3d 5d f0 35 3e
       0.04276889 0.10649617 0.06339444 0.17767473
0001f0 35 54 c1 3d db 0b 36 3e f8 ed 98 3d 3b aa 52 bd
       0.09439889 0.1777796 0.07467264 -0.051431876

encoder.rnn1.weight_hh_l0 f4 [128, 32]
000000 9f 1d 93 3d 21 68 a9 bd 22 f9 57 3e ac 05 02 bd
       0.07183384 -0.08271814 0.2109113 -0.03174369
000010 0f bb 19 bd b0 52 7c 3d ea e7 51 3e 1a 18 36 be
       -0.03753191 0.061602294 0.20498624 -0.17782632
000020 0f 6d 45 3e 79 de 15 be ec 9b fd 3d e6 ea d6 bc
       0.19279884 -0.14635648 0.12383255 -0.026235055
000030 55 fb d2 3c 06 12 1f bc 33 d5 ea bd ac 5e 90 be
       0.02575461 -0.009708887 -0.11466446 -0.2819723
000040 0f 8a 8e 3e ca 7a 17 3e 6a 24 75 3e fc 0c 8a 3e
       0.27839705 0.14792934 0.23939672 0.2696303
000050 e2 76 8b bb e2 2b ad bd 24 ef 18 3e 89 9c a5 be
       -0.0042561153 -0.084556356 0.14934975 -0.3234599
000060 96 07 13 be 5c da ad 3d a6 25 af 3e a9 ac aa 3d
       -0.14358363 0.08488914 0.3420841 0.083337136
000070 66 23 fe bd ab 8b 0b bc ec b3 42 be 70 20 4a 3a
       -0.124090955 -0.008517186 -0.19013947 0.0007710522
000080 eb ae 84 3e d4 39 82 bd 8e 9c 8b 3e d9 cb 4b 3c
       0.25914702 -0.06358686 0.2726788 0.012438738
000090 ef 4e 99 bc 17 28 87 be 66 40 55 be b7 64 94 3e
       -0.018714396 -0.26397774 -0.20825347 0.2898309
0000a0 2e 76 5f 3e 32 fe a4 be 34 66 9a be cb 77 38 be
       0.21822426 -0.32225186 -0.301561 -0.18014447
0000b0 e7 89 08 be 51 24 ab be 0e a7 6e 3d 56 86 00 3c
       -0.13333856 -0.33426145 0.058264785 0.007844528
0000c0 a1 e0 80 be af 69 52 be 2a 8a 97 3d d9 df 81 be
       -0.25171378 -0.20548128 0.073993996 -0.25366095
0000d0 75 95 41 3e 80 36 ca bb 97 0d 1f be e9 ad a8 3d
       0.1890467 -0.0061710477 -0.15532528 0.08236296
0000e0 16 cd 9b bd a6 bf b6 3d 86 ae c3 3d 5b 4b dd be
       -0.076074764 0.08923273 0.09554772 -0.43221554
0000f0 30 17 3f be 1c 7c 58 3e 8a 7e 75 3d 43 52 0e be
       -0.18661189 0.21141094 0.05993513 -0.13898568
000100 77 50 b7 3e c7 24 5a 3d 9b c2 5b be 65 8a 2f bd
       0.35803577 0.05325773 -0.21460955 -0.042856593
000110 86 d9 a7 3d ab 05 f4 bd 85 a7 bd bd 39 f1 b1 bd
       0.08195786 -0.119151436 -0.092604674 -0.08688588
000120 c5 a2 e7 bd 03 8b 5d 3b 91 b0 5e 3e cd e7 04 3e
       -0.11310343 0.0033804781 0.21747042 0.1297905
000130 42 f7 4f bc 7e c8 c5 bd 0f 65 0c be 42 79 79 be
       -0.012693228 -0.096573815 -0.13710426 -0.24362662
000140 6b 1e 09 bc 90 74 85 3e 1b 4b 77 3c 63 88 5c 3e
       -0.008369069 0.26065493 0.01509359 0.21536402
000150 f7 f5 c0 bd bf a0 25 be 2e 7d 18 3e 35 97 82 3e
       -0.09421914 -0.16174601 0.14891502 0.25505987
000160 29 74 02 3e a1 19 d1 3c 5d 90 35 3d 3c ce 16 3d
       0.12739624 0.025524916 0.04432713 0.036817774
000170 99 a0 dd bd 02 8c 37 3d 4d 05 88 be a3 f2 ee 3c
       -0.10821647 0.044811256 -0.26566544 0.029168433
000180 00 b6 6b be 6b 11 e6 39 45 34 f7 3d a9 63 1d be
       -0.23018646 0.00043881996 0.120705165 -0.15370049
000190 3c 21 49 3e 2a 42 70 bc 2b 5e 9a 3c d5 42 ac 3d
       0.19641584 -0.014664212 0.01884373 0.08411185
0001a0 87 dd a6 3e ba 3b 96 3d 45 b4 6c 3d 61 65 dc bc
       0.32590887 0.07335611 0.057789106 -0.02690381
0001b0 2b 35 ff bd 9c f6 aa 3d 96 7e 5a be c2 a7 58 be
       -0.12461313 0.08347818 -0.21337351 -0.21157745
0001c0 50 73 8f 3e 6b 26 8d be dd 07 4f 3e 6a dc 93 bd
       0.28017664 -0.27568373 0.20217843 -0.07219775
0001d0 66 ae 83 bd fd c0 e7 bd 5f 68 b5 bd 58 39 74 3c
       -0.06429748 -0.113161065 -0.08857798 0.01490625
0001e0 58 9e bc bd 77 f2 ce 3d cf 38 4f 3e 47 ab 31 be
       -0.09209889 0.1010484 0.20236515 -0.17350493
0001f0 fe ba 4a bd ad c9 ad bb aa c2 36 bd 5b 69 31 be
       -0.049494736 -0.0053035826 -0.04461924 -0.17325346
000200 0e a4 c6 bc 6e 0a cb 3d 7b 5b 9f bd 54 93 b5 3d
       -0.02424815 0.09914099 -0.077811204 0.08865991
000210 68 94 0c bd 4b 37 47 be e7 9f 08 3e 3b fb 64 be
       -0.03432122 -0.19454686 0.13342248 -0.22361462
000220 16 12 68 bc 9e 53 76 3e 67 aa 2c 3e 92 5c 27 3e
       -0.014164468 0.24055335 0.16861878 0.16343907
000230 42 e2 16 3e ee fd 04 be 6d e7 b5 3d 2c 81 a7 bd
       0.14734748 -0.12987491 0.088820316 -0.081789345
000240 98 1e ad 3d df 32 64 3e ea 7f 08 3e ba cb 1c 3e
       0.08453101 0.22285031 0.13330045 0.1531209
000250 a3 bc 36 be fd 5a 99 3e ee d3 07 3e 9b 33 55 be
       -0.17845397 0.2995223 0.13264439 -0.20820467
000260 20 64 5c 3d 12 14 ca bd 33 11 a4 3d 72 97 6d bc
       0.053806424 -0.09867109 0.08011093 -0.014501439
000270 32 1b 0c be 50 d3 14 be 62 6c bc be a9 71 a9 3e
       -0.13682249 -0.14533734 -0.3680144 0.33094528
000280 55 dc 6e 3e 5f 6f b1 3d 20 cb 27 be 50 3c 92 3e
       0.23326237 0.086638205 -0.1638608 0.2856164
000290 1d 37 4b be 0a 7e c1 be cd 53 34 bd 1d f7 c9 be
       -0.19845243 -0.37791473 -0.04402523 -0.39446345
0002a0 65 e3 67 be 46 ed ca 3e 47 ad a0 3e 33 f1 77 3e
       -0.22645338 0.3963415 0.313822 0.24213104
0002b0 31 6a aa 3e 67 cf a5 be 4e 20 ab be b2 ed da be
       0.33284143 -0.32384798 -0.33423084 -0.42759472
0002c0 d1 33 e4 bd e6 e7 21 3f fd bf ba be 03 1c 68 3e
       -0.11142696 0.63244474 -0.364746 0.22666936
0002d0 19 ec 15 bf b1 a8 99 3e fc ec 09 3e 88 b0 ae 3d
       -0.5856338 0.30011514 0.13469309 0.085297644
0002e0 5c da 51 bd f2 7f 02 3f 43 c0 87 3d d7 45 05 3f
       -0.051233634 0.5097648 0.06628468 0.5205969
0002f0 ab db 0f be 32 5f 9a bd 59 19 2b be 59 3d 94 3d
       -0.1404864 -0.07537688 -0.16708888 0.07238264
000300 49 52 c4 3d d3 24 c4 be 84 0f 4e 3e cc 5c a0 3e
       0.09586007 -0.38309345 0.20123106 0.31320798
000310 0d c1 26 bf 2b 5f 86 be 4d 29 a8 bd 68 14 cb bc
       -0.6513832 -0.26244482 -0.082110025 -0.024790004
000320 c1 c5 7d bd dd 2d 1f 3e 14 b8 03 3c e0 a7 2d be
       -0.06195617 0.15544839 0.008039493 -0.1695857
000330 75 43 bb be 69 f3 b9 be 1f be ac 3d 5a 68 09 be
       -0.36574903 -0.3631852 0.084347 -0.13418713
000340 8c 12 bf bd d8 02 72 3e 25 07 29 be 92 07 a5 be
       -0.093297094 0.23633897 -0.16506632 -0.32232338
000350 ab 07 46 3e d3 c8 35 be c7 2f cf bc d6 56 49 be
       0.19338863 -0.1775239 -0.025291337 -0.19662032
000360 5a 60 05 bf ef ee a9 bd 7e 3e 9f 3e f0 eb 6b be
       -0.52100146 -0.08297526 0.31102365 -0.23039222
000370 c0 3e 6b 3d 29 d3 68 3e 9b c8 1c 3e 5a a3 2b 3d
       0.05743289 0.22736801 0.153109 0.04190383
000380 50 13 d8 3c 30 a6 c4 3d d8 0d b2 3e 8b 62 12 be
       0.026376396 0.0960201 0.34776187 -0.14295404
000390 fc 1b 28 bd f5 00 0f be e4 1d 93 be 72 9e d2 3e
       -0.041042313 -0.13965209 -0.28733742 0.4113651
0003a0 74 c2 17 be 40 a8 d3 bd 87 5b 68 be 21 cd 24 bd
       -0.14820272 -0.103348255 -0.22691165 -0.04023469
0003b0 f7 cb 67 3d c7 4b d4 bd d5 9a 07 3e a4 1f 33 3d
       0.056591 -0.10366016 0.13242657 0.043731347
0003c0 b2 07 a8 be c6 6c 0a be 2a 5e 34 3e 22 7c 5e 3d
       -0.3281837 -0.13518056 0.17614046 0.0543176
0003d0 3e 20 af bc ec ca 82 bc 3b c0 aa bd b4 fa 84 3e
       -0.021377679 -0.015965901 -0.08337446 0.2597252
0003e0 bf 26 53 3d 51 b1 52 3e f3 46 94 3e b6 c5 97 be
       0.051550623 0.20575453 0.2896038 -0.2964303
0003f0 12 67 f9 3d 18 c5 eb 3b 14 6a 2e 3e 74 36 ab 3e
       0.12177862 0.0071951263 0.17032653 0.33439982

encoder.rnn1.bias_ih_l0 f4 [128]
000000 c6 2b 10 be da 4f 6e be 8e 5e 8e 3e 88 ba 55 bd
       -0.14079198 -0.23272648 0.27806515 -0.052179843
000010 67 6d 80 be 9a 6d 3c be 2b 9b 11 3f 7f b3 58 be
       -0.25083467 -0.18401185 0.5687739 -0.21162222
000020 44 6d 92 3e 4d b7 3a be f0 5c 9d bc 2d 34 53 3d
       0.28598988 -0.18233986 -0.019209355 0.05156343
000030 04 5e e0 bd 13 70 33 3e 96 b4 94 3e 0b a0 95 bc
       -0.10955432 0.17523222 0.29044026 -0.018264791
000040 8e cf 5c 3e f1 b3 3b 3d b5 5c 48 3d 5b 45 94 3e
       0.21563551 0.045825902 0.048916537 0.28959164
000050 45 b0 c9 3e 4c 81 12 bd 04 e9 a6 3d 36 b5 89 bd
       0.39392295 -0.03576784 0.08149913 -0.06724016
000060 14 d5 97 3d 99 73 8d bd 0f 34 83 3d 81 34 b7 3d
       0.07413688 -0.06906814 0.06406414 0.08945561
000070 6b 96 40 bd 86 b5 47 3e 4c c1 2c 3d b1 8f 4e be
       -0.04701845 0.1950284 0.04217653 -0.20172001
000080 e9 4b e5 3e 24 20 06 3e 80 66 a1 3e 9a e3 2f 3e
       0.44784477 0.13098198 0.31523514 0.17176667
000090 8c 2f e2 3d cc da 4a 3e 31 8c be 3e cf 75 fa 3d
       0.11044225 0.19810027 0.37216333 0.122295015
0000a0 11 1a 8e 3e fa 08 0c 3e ee b7 1f be 5b fa 6d 3d
       0.27754262 0.136753 -0.15597507 0.058100086
0000b0 38 b3 0a be 73 55 6e 3e cc 25 18 3e 94 1e 5c 3e
       -0.13544929 0.23274784 0.14858168 0.2149604
0000c0 62 d9 68 3e dc 0b 43 3c 06 23 e4 3d 41 d0 28 3e
       0.22739175 0.011904683 0.11139493 0.16485693
0000d0 0a 6c c7 3e 32 5b 96 bc e3 cf 4c 3d da f9 b0 3e
       0.38949615 -0.018354032 0.050002944 0.34565622
0000e0 8d 23 f7 3e 50 0f 80 3c 37 99 bd bc 64 c0 19 bd
       0.4826931 0.015632302 -0.023144348 -0.037536994
0000f0 20 df b9 3d 1f e8 e8 3d 06 83 f9 3d 5a 17 8f 3e
       0.09075761 0.113723986 0.12183194 0.27947503
000100 61 27 1a 3d 9e 16 02 3d d5 4b 81 bd 74 b7 2a 3e
       0.03763521 0.03175985 -0.06313292 0.16671544
000110 77 6d 7d 3d f8 a1 a5 3d c7 83 4c 3d 3d d3 9f bd
       0.061871972 0.08087534 0.04993036 -0.078039624
000120 b1 7f 7e be 50 ff 04 3e 57 73 09 be cf c7 8d bd
       -0.24853398 0.12988019 -0.13422905 -0.06922876
000130 ac 85 b8 3d 8a 0b f7 3d b4 a4 85 bc bd 78 39 be
       0.09009871 0.12062748 -0.016313888 -0.18112464
000140 13 84 ec bb 86 b1 62 3d 48 08 a7 bd ea a7 35 bd
       -0.007217893 0.05534508 -0.081558764 -0.04434959
000150 ce 34 a3 bc 6a d3 02 be 59 63 60 be 9b db 15 be
       -0.01992264 -0.1277596 -0.21912898 -0.14634554
000160 1e b3 d6 bd 4d cc da bd fd 17 29 be ae 40 5d bc
       -0.10483383 -0.106834985 -0.16513057 -0.01350419
000170 6a 8c 11 bb fd 58 c5 3d 6f ad 09 3e ad 70 84 bd
       -0.0022208937 0.09636114 0.13445066 -0.06466804
000180 d9 b5 57 3e a6 72 1e 3e 12 8e 38 3e 46 ec 17 3b
       0.21065463 0.15473422 0.18022946 0.0023181601
000190 89 e1 ce 3c cc 69 d2 3e 72 d6 ad 3d 25 5c a1 3d
       0.025254028 0.41096342 0.08488168 0.07878903
0001a0 9c 8f 20 3e 3b ee b4 3e 34 2d 4e 3e 0e e9 28 3e
       0.15679783 0.35338005 0.20134431 0.16495153
0001b0 4f a0 1a 3e 54 b8 ca 3e 7f dc 03 3e f6 32 ba bd
       0.15100215 0.39593756 0.12877081 -0.09091751
0001c0 03 5d a5 bd ec 0d e4 3b c0 c1 e0 3d e0 d2 16 3e
       -0.08074381 0.0069596674 0.10974455 0.1472888
0001d0 f4 a7 37 3e 12 34 cf 3e 7f 0c 02 3e 2b ac 86 bd
       0.17935163 0.40469414 0.1270008 -0.06575807
0001e0 3c 6f 85 3e 27 79 01 3e d8 37 89 be 2d 54 b2 3d
       0.26061428 0.12643872 -0.26800418 0.087074615
0001f0 89 6f e8 bd 48 53 5e 3e 7b 17 e9 bc 13 71 87 3e
       -0.11349399 0.21711457 -0.02845358 0.26453456

encoder.rnn1.bias_hh_l0 f4 [128]
000000 86 8c bc bc f4 b5 37 bc dc 10 36 3e 6f 84 4c be
       -0.023016226 -0.011212815 0.17779869 -0.19972394
000010 0a 20 37 be 1b b2 ba 3d 57 aa a4 3e 06 77 56 be
       -0.17883316 0.09116002 0.3216121 -0.20943841
000020 d4 dc b1 3d 91 06 7d be 70 90 41 bd 74 60 b4 bc
       0.08684698 -0.24709536 -0.047256887 -0.022018649
000030 44 7a 82 bd 31 58 36 3e f1 b7 84 3e 10 93 01 3e
       -0.063709766 0.1780708 0.25921586 0.12653756
000040 46 96 0c 3d 69 f0 36 3d 22 b7 84 3b ea 01 df 3d
       0.034323 0.044662867 0.0040501514 0.10889037
000050 74 0f 4a 3e 2d 89 23 3e a0 91 5a be 17 f6 b5 3d
       0.19732457 0.15970297 -0.21344614 0.088848285
000060 89 bb 2d 3d 5f 94 14 be b7 6d 4e be 1b a8 d1 bd
       0.042415176 -0.14509724 -0.2015904 -0.10237142
000070 97 81 0e 3c 78 a2 25 3e fd 74 32 bd 3e b5 ed bb
       0.008697889 0.16175258 -0.0435686 -0.007254272
000080 03 58 d9 3e 4a d8 12 be d8 d0 a7 3e 87 9d 90 bd
       0.4244996 -0.1434032 0.32776523 -0.07061296
000090 98 6b 8c 3d 8b b0 c7 3e a0 22 e6 3e 6e 92 f4 bd
       0.068564594 0.3900188 0.44948292 -0.11941992
0000a0 72 6f f2 3e fb c1 0b be a3 2e 38 bd e2 03 f6 3d
       0.4735065 -0.13648216 -0.04496635 0.12012459
0000b0 26 60 12 3e 99 e7 ae 3e 04 8d 15 bd c3 4a 51 3e
       0.1429449 0.3416107 -0.036511436 0.20438676
0000c0 74 1c 08 3e bc c8 12 3e 36 87 0f 3e de 7b a3 3e
       0.13292104 0.14334387 0.14016423 0.3193044
0000d0 96 c2 d6 3d ab 48 eb 3d dc 76 95 3d 42 db ae 3e
       0.10486333 0.1148847 0.07298061 0.34151655
0000e0 64 34 c7 3e c5 1d aa 3e 38 2a 2e be 16 08 10 bd
       0.38907158 0.33225837 -0.17008293 -0.03516396
0000f0 62 b8 33 3d ea d9 33 3e 82 8d 5b 3e 73 0e a1 3b
       0.043877013 0.17563596 0.214407 0.0049150526
000100 73 d8 d5 3d d0 47 5d be 30 7f 02 be 8a 18 20 3d
       0.10441675 -0.21609426 -0.1274383 0.039085902
000110 0e 88 0a be d3 8b 53 bd e7 73 10 be ea 1c 50 3e
       -0.13528463 -0.05164702 -0.14106713 0.2032353
000120 c3 72 5d be c1 df f8 bb 76 e8 c4 3c 72 84 04 be
       -0.2162581 -0.007595033 0.024036627 -0.12941149
000130 01 1e 40 be bb 4c da bb f1 a9 39 be ae b2 a9 bd
       -0.18761446 -0.006661979 -0.18131234 -0.082860336
000140 d1 27 28 3c 6f e1 0d be a6 73 5d be ca e8 49 3d
       0.010263399 -0.13855527 -0.21626148 0.04929427
000150 b1 d8 0e be 09 c8 ce bd ff de 95 bd c4 4c 78 bc
       -0.13949849 -0.100967474 -0.07317924 -0.015155021
000160 02 33 34 be fa b6 d2 bd 86 95 2f bd 00 98 12 3d
       -0.17597583 -0.10288806 -0.042867206 0.03578949
000170 ab db 16 3e c6 a9 cb bd 2d 3d 5b 3e 7e 30 34 3e
       0.14732234 -0.09944491 0.21410055 0.17596623
000180 49 64 e0 3c 7e 80 50 3d 60 82 20 be be 45 1e bd
       0.02739157 0.05090379 -0.15674734 -0.03864073
000190 ab 90 92 bb 83 7a d7 3d ff 22 51 3b 8e 46 64 bd
       -0.004472812 0.10521414 0.0031911728 -0.05573135
0001a0 2a da 23 bd 5f bd ab 3e 0f ac 7c 3e 98 fa fb 3e
       -0.04000298 0.33542916 0.2467501 0.49214625
0001b0 c8 34 f9 3d f3 a1 22 3e e7 25 04 3e 6b 78 1e bb
       0.1216827 0.15882091 0.12905084 -0.0024180661
0001c0 5f a5 88 bd 12 97 05 3e 5f ab be 3d 03 32 08 3e
       -0.06672167 0.1304591 0.0931003 0.13300328
0001d0 f2 92 8a 3e 18 1c 88 3e 8e 4b 0f 3e 82 ef 46 be
       0.27065235 0.26583934 0.13993666 -0.19427302
0001e0 3e b3 0f 3e 46 8a ab bd f9 62 0a be 56 5f 94 bd
       0.14033219 -0.08375983 -0.13514318 -0.072447464
0001f0 74 56 be bd 4f a1 b8 bd 36 31 8c bc 67 c8 80 3e
       -0.092938334 -0.09015142 -0.01711331 0.25152895

encoder.rnn2.weight_ih_l0 f4 [64, 32]
000000 22 7b 8c be 21 79 fd bd c4 00 ba 3c 6f 2d 42 3e
       -0.27437693 -0.12376619 0.022705443 0.18962644
000010 dd cf 2b be f8 13 10 3e 2a 4d a9 3e c2 5f a5 be
       -0.16778512 0.14070117 0.33066684 -0.3229962
000020 d4 db ad be 72 43 2f 3e 89 42 20 3e 42 25 12 3e
       -0.33956778 0.17115572 0.15650381 0.14272025
000030 1a 60 2b be 31 ba c6 3e df fa ec 3d e4 ab 85 be
       -0.16735879 0.38813928 0.11571287 -0.26107705
000040 82 63 df 3d 8d a2 96 be 21 ac 83 be 22 ce 7e 3e
       0.109076515 -0.2942089 -0.2571726 0.24883321
000050 7f 20 89 be 45 4c ab bd 76 bc 9d bc 14 f7 20 be
       -0.26782605 -0.08364157 -0.019254904 -0.15719253
000060 64 5b e8 3d a3 dc 21 be 08 3c ed bc a9 8f 99 bc
       0.113455564 -0.15806822 -0.02895929 -0.01874526
000070 0f da a9 be 49 ae c6 3c b3 ea 98 be fd 63 1f 3e
       -0.33174178 0.024253028 -0.2986656 0.15565486
000080 0c 8f e5 3d fe 84 8e 3e f6 d7 e0 be cb fd 5c bd
       0.11208925 0.2783584 -0.43914765 -0.053952973
000090 34 8e 92 be 24 77 10 bf 25 97 35 be 51 24 a2 3c
       -0.28624117 -0.56431794 -0.17733438 0.019792708
0000a0 ff 09 c9 be b3 d3 8f 3d a9 ad 04 be 63 a0 c6 bc
       -0.3926544 0.070228 -0.12956871 -0.0242464
0000b0 e4 ff e5 3d 22 e6 3c be ff 88 35 3d e1 a1 d1 bd
       0.11230448 -0.18447164 0.044320103 -0.10235954
0000c0 09 3d 17 3e ea 57 75 3e 41 2a 16 be d2 96 d9 3e
       0.14769377 0.23959318 -0.14664556 0.4249788
0000d0 81 ba 97 3e 5f cf af 3e 89 82 fe 3c c5 7a 16 3e
       0.2963448 0.343379 0.031068103 0.1469527
0000e0 6a 40 13 3c a8 a2 4d bd e5 3c 6d be e9 50 38 3d
       0.0089875255 -0.05020395 -0.2316776 0.044999037
0000f0 41 14 53 3d 92 24 8a 3e ee d8 bc bd 8b 33 96 3c
       0.051532988 0.26981026 -0.092210636 0.018335124
000100 68 1c cb 3e 29 d8 0a 3d 8c 68 99 3e 61 4a 9c 3d
       0.3967011 0.033897553 0.29962575 0.07631374
000110 ec 0c f2 be 71 5a d3 be df b5 61 3b 0c 80 c6 be
       -0.47275484 -0.4127994 0.003444068 -0.38769567
000120 fb fb 18 bc d4 a6 a8 3e 25 b5 3a 3c dd 27 6e 3e
       -0.009337421 0.3293978 0.011395727 0.23257394
000130 5e 0e 5b bd 00 6e 06 bf 42 f3 80 3b 8b ba b7 bd
       -0.0534805 -0.52511597 0.0039352486 -0.08971127
000140 17 e6 dd be e6 2a 87 3e d2 77 78 bd 1a 7f 17 be
       -0.43339607 0.26399916 -0.060661145 -0.14794579
000150 16 8b 3b 3f 61 da 83 3e 26 a2 d2 3d 36 14 85 3d
       0.73259103 0.25752547 0.102848336 0.064979956
000160 ff 7f 8c bd 3c 8c 13 be 9f 41 90 3e 75 90 cf be
       -0.06860351 -0.14408964 0.28175065 -0.405399
000170 39 b4 25 bd 2b 66 41 3e 0c 8c 25 3e cf 45 a0 bd
       -0.040455077 0.1888663 0.16166705 -0.07825815
000180 71 37 fe 3c 63 73 a5 be d6 b3 d3 bd dc ba f5 bd
       0.031032296 -0.32314596 -0.10337035 -0.11998531
000190 5c b5 1e be 29 2d 06 be ef dd b7 3e 1e ee 7a 3d
       -0.1549887 -0.13103165 0.3591151 0.061262242
0001a0 57 90 b4 3e fd 32 18 bd c2 a2 61 be 1f 3e 85 bd
       0.35266373 -0.037158 -0.22034743 -0.06505989
0001b0 9b fb 59 be 24 f9 ef 3d 9a 64 64 3e 87 6f a8 3e
       -0.21287386 0.11717442 0.22304001 0.3289759
0001c0 99 6c bb be 9a 14 55 bd 2b 14 2e 3e 7d 54 09 bf
       -0.3660629 -0.0520216 0.16999881 -0.53644544
0001d0 e5 8b ce 3e ad 44 5d 3e 7b eb 11 3f 16 90 24 bd
       0.40341106 0.21608229 0.5699994 -0.040176474
0001e0 9c 1c 4a bb 6c c2 75 bd 4f cb 11 bc 9d 70 2e 3e
       -0.0030839806 -0.05999987 -0.00889857 0.17035146
0001f0 d5 ba 80 3e 63 fa 1e 3e 22 fc 3e be 97 9a 35 bc
       0.25142542 0.15525202 -0.18650869 -0.01108422
000200 47 17 ae 3d 10 1d 0d be 37 93 02 be c2 4e 67 3d
       0.085005336 -0.13780618 -0.1275147 0.056471594
000210 d1 87 7b be f1 63 da 3d a2 d0 8b 3d f7 18 cd be
       -0.24563529 0.106635936 0.06826903 -0.4005811
000220 97 fe 8f be b1 35 71 3d 5c 3f 5b 3e 88 11 17 3e
       -0.28123924 0.058889095 0.21410888 0.14752781
000230 a0 2d d9 3e 5b ff ff bd 7f 68 b3 3c 44 3d 50 be
       0.42417622 -0.12499877 0.021900414 -0.20335871
000240 0b c6 a8 3c 65 6c 0a 3f 7e 0a c9 bd 85 fe 86 3e
       0.020602247 0.54071647 -0.09816454 0.26366058
000250 df 9a 98 be 79 01 f6 3d 1f 01 62 bb 78 76 6e 3d
       -0.29805657 0.12012 -0.0034485532 0.05821845
000260 2a ac af bd f0 9b b2 3d d6 d3 b1 be cb 75 b5 3e
       -0.085777596 0.08721149 -0.3473193 0.3544143
000270 d3 63 5d bd b7 d2 c3 bd 6b 5f e4 be 07 71 ce 3e
       -0.054050278 -0.09561675 -0.44604048 0.40320608
000280 be ec 34 bd d1 2d b4 3e 5f bd e4 3d 0f 18 b7 3c
       -0.044171087 0.35191205 0.11168932 0.02235034
000290 8c 74 95 bd 19 3a 44 3e 49 30 53 be bb a8 9f bd
       -0.0729762 0.19162787 -0.20623888 -0.07795855
0002a0 08 5e 0f 3e a1 f2 70 3d 10 ad 5a 3e 01 8e 3b 3d
       0.14000714 0.05882514 0.2135508 0.045789722
0002b0 7f a5 46 be 43 43 2a 3e 6f 12 9b bb d3 e0 a5 3d
       -0.19399069 0.16627221 -0.004732422 0.080995224
0002c0 17 d7 d9 3c ce d3 65 3e 58 48 dd be 84 46 ba 3e
       0.02659182 0.22444078 -0.43219256 0.36381924
0002d0 16 f3 90 3e b8 06 80 bd b5 d4 41 be 59 ca 76 be
       0.2831046 -0.062512815 -0.18928798 -0.24100627
0002e0 79 30 23 3e bf fc f7 bd 58 1f f5 3d c6 5a 64 3e
       0.1593646 -0.12108754 0.11968869 0.22300252
0002f0 30 8f 8d be d4 ab 96 be 39 17 ab be d6 a6 ef bc
       -0.27648306 -0.2942797 -0.33416155 -0.029254358
000300 b1 0b d6 3e da e3 87 bd 87 aa 85 bb ae b1 0d 3d
       0.41805795 -0.06635256 -0.0040791663 0.034593277
000310 0b 9d e4 3d b7 93 03 be ae dd e8 be 81 82 29 3e
       0.11162766 -0.12849317 -0.45481628 0.1655369
000320 68 2c 7e 3c f0 81 13 3e c0 cd 8c be 8e af 63 bd
       0.015513517 0.14405036 -0.27500725 -0.055587344
000330 c7 57 38 bd 1c 5d 57 be 4a 1c 8f 3e e2 91 c7 3e
       -0.045005586 -0.21031612 0.2795127 0.38978487
000340 9d 2f aa be 19 12 dd 3c fb e8 74 be 17 09 c5 bd
       -0.3323945 0.026986169 -0.23917 -0.096208744
000350 de 6a 66 3e ed 34 ee bd d1 7d 82 be 4e a3 8d be
       0.22501704 -0.116311885 -0.25486615 -0.27663654
000360 cf 41 2d bc 60 84 24 be 5e 71 2e 3e ea 2f 35 be
       -0.010574772 -0.16066122 0.17035434 -0.17694059
000370 5a 89 65 3e a9 a9 4a 3e 49 e0 2f 3e 64 a6 08 3d
       0.22415677 0.19791283 0.17175402 0.033361807
000380 73 4a 97 3e 5f 64 7b 3e 84 b7 fa bd df c2 52 3f
       0.29548988 0.24550007 -0.12242034 0.823286
000390 ad 67 f0 3d 4e 68 db be 78 fa fa bb ee 09 61 be
       0.117385246 -0.42853016 -0.0076592527 -0.21976444
0003a0 cb 32 a5 be 8a 32 8f 3e f9 c4 d8 bd 2a 80 7a bd
       -0.32265314 0.27968246 -0.105844446 -0.061157383
0003b0 bf 06 36 3e 97 c1 a8 3e 8e 00 0f be 92 08 c2 bb
       0.17776011 0.32960197 -0.13965055 -0.005921432
0003c0 af 57 23 3e b2 57 f8 3e 9b 07 17 bf 80 ee 68 3e
       0.15951417 0.48504406 -0.5899598 0.2274723
0003d0 32 26 a4 3e f2 82 5f 3e 0a 50 21 bf 30 0d 1f bd
       0.3206039 0.21827295 -0.63012755 -0.038830936
0003e0 30 f5 df bd be e8 3f 3d 72 95 6a be 07 07 a7 3e
       -0.10935438 0.04685282 -0.22908571 0.3262255
0003f0 4f cc 76 be aa f8 4e 3e 7a 53 f1 be f0 75 fd bd
       -0.24101375 0.20212045 -0.47134 -0.123760104

encoder.rnn2.weight_hh_l0 f4 [64, 16]
000000 5b 2a 20 3e f1 97 1a be 60 a1 3a 3e fe 76 4d be
       0.15641157 -0.15097024 0.18225622 -0.20064923
000010 b8 cf 6b be cd 3f 83 3e dd 5d 21 3e 7b 2b a0 bd
       -0.23028457 0.25634614 0.15758462 -0.07820793
000020 0b a8 8a bd 22 e2 fb 3c 83 11 0f bd 57 d1 8d 3e
       -0.06770333 0.030747477 -0.03492881 0.27698776
000030 33 61 72 3d 17 a4 aa 3e 70 b3 0b be a2 08 03 bd
       0.059174728 0.33328316 -0.13642669 -0.031990655
000040 59 62 05 be 62 19 f7 3c d8 6c ed bd d3 07 62 bd
       -0.13025798 0.03016347 -0.11593026 -0.055183243
000050 2c ee a1 be 85 fc fb be 0d 5d de bd 54 04 38 3e
       -0.31627023 -0.49216095 -0.10857592 0.17970401
000060 5b 60 61 3e a4 33 49 be 85 99 1c be 5d a9 82 3e
       0.22009413 -0.19648606 -0.15292938 0.2551984
000070 6b b2 b1 3d 0a 27 21 3d 64 fb de bd 08 40 26 be
       0.08676609 0.03934387 -0.10887793 -0.16235363
000080 21 74 a9 3c 84 b5 60 3e 84 7f fd 3d ac 89 2e be
       0.020685257 0.21944243 0.12377837 -0.17044705
000090 fb 2b 92 3d 37 8f 74 be b6 72 05 3e e2 fc df 3e
       0.07137295 -0.23882757 0.1303204 0.43747622
0000a0 b8 5f 5e 3d 0d 4e 0e 3e 5a 2c b2 bc 50 13 b4 3e
       0.054290503 0.13896962 -0.021749664 0.35170984
0000b0 5e c2 5d bd 77 0a 4c 3e 19 19 f9 3d 69 3f dd 3d
       -0.05414044 0.19925867 0.1216299 0.1080311
0000c0 7f 9d 62 be 36 e8 d6 3e 2d 43 8b be 83 87 de 3e
       -0.22130392 0.41974038 -0.2719969 0.43462762
0000d0 b5 89 aa be f6 50 5b 3e 28 1c 2f be 85 d1 de 3d
       -0.33308187 0.21417603 -0.17100585 0.108798064
0000e0 1d 1e 5c 3e 00 4e 84 3e 8f 94 1a 3e b7 67 28 be
       0.21495862 0.2584076 0.15095733 -0.16445814
0000f0 a2 18 3a 3e 91 53 92 be cf 4f 24 3d 2a 3d 06 be
       0.18173459 -0.2857938 0.040115174 -0.1310927
000100 6c f0 d2 3c 5f af dc bd b7 62 91 3e 3d 3d d7 bd
       0.025749408 -0.10775637 0.28395626 -0.10509727
000110 06 e4 b3 be 36 92 58 3d af 8a 36 3e 29 c1 33 be
       -0.35134906 0.052873813 0.17826341 -0.17554154
000120 23 98 33 3e b6 b1 21 be 4b 1b 41 be 44 0b 06 3d
       0.17538504 -0.15790448 -0.18858068 0.032725587
000130 ff ba ed bd 95 b0 b5 3e a6 fe 2f be f0 1f 81 bd
       -0.11607932 0.35486284 -0.17186984 -0.0630492
000140 50 03 56 be fa fa 4c bd 69 1d 74 3e 81 2d e8 bd
       -0.20899701 -0.050044037 0.23839344 -0.11336804
000150 21 5c 3f be 38 0b 1a 3f 74 bb 94 3e 84 22 63 3c
       -0.18687488 0.6017337 0.29049265 0.01386321
000160 81 07 0a be 01 0f 95 bd 74 a8 db 3d c9 32 67 3c
       -0.13479425 -0.072782524 0.10725489 0.014111229
000170 67 83 b6 be 70 10 c1 3e 61 27 98 be 62 ca 12 3e
       -0.35647127 0.37707853 -0.29717544 0.14335015
000180 3a ba 2a be 1d fc 8a 3e 34 32 7a be 90 ba 2b be
       -0.16672602 0.27145472 -0.24433213 -0.16770387
000190 48 0b 96 bd 4d 5b a5 3d 1d 5a 77 be da 66 25 3d
       -0.073263705 0.08074055 -0.24155469 0.04038129
0001a0 c7 39 af 3e c8 26 13 3e d4 74 19 bb 78 16 d0 3e
       0.34223768 0.14370263 -0.0023415582 0.40642142
0001b0 0e 8a 31 3e 72 24 01 3e d0 58 23 3e a5 7c 18 be
       0.1733782 0.12611559 0.15951848 -0.14891298
0001c0 cf f3 4b be 84 dc 0f be ee 04 bc 3d 11 05 09 be
       -0.19917224 -0.14048964 0.09180628 -0.13380839
0001d0 64 8f bf be d3 3c 07 bd 7a c5 c4 3d bb dd 93 bd
       -0.37414086 -0.03301699 0.09607978 -0.07220026
0001e0 46 8b 9e be 4e 24 9a be fa 65 ea bd 72 d8 67 3e
       -0.30965632 -0.30105823 -0.11445232 0.22641161
0001f0 25 f4 0d 3d 60 d5 b3 3e 30 16 98 be 91 56 53 3d
       0.034656662 0.3512373 -0.29704428 0.051596228
000200 fd 74 2c 3e c9 a3 85 bd b1 60 cf 3e c6 21 c6 be
       0.16841502 -0.0652538 0.40503457 -0.38697642
000210 05 3b ea 3c e4 46 03 be 03 dd 42 be a1 71 98 3e
       0.028592596 -0.12820011 -0.19029622 0.29774192
000220 35 af 40 bd 9c 49 98 bd 65 c8 e9 3d a4 33 44 3e
       -0.04704209 -0.07435915 0.11415175 0.19160324
000230 8a 84 b4 3e 9a ac 5c 3d df 9f 91 bd a8 fc e3 3d
       0.3525737 0.053875543 -0.07110571 0.11132175
000240 36 1d a7 bb fa 8d 0e be 9f 6a 4f be 68 ed ae 3e
       -0.0050999178 -0.13921347 -0.20255516 0.34165502
000250 c0 d4 ab 3d 09 ce c6 bd ba ef 29 be be 0d af 3d
       0.08390188 -0.09707267 -0.16595355 0.08547543
000260 ed 28 42 3e 23 52 c2 bd 04 3e 75 be 2f 1c 61 3e
       0.18960924 -0.094883226 -0.23949438 0.21983407
000270 e9 12 53 3e 55 cd 96 bd e4 9e 0b be 17 9f 54 be
       0.20612682 -0.07363383 -0.1363483 -0.20763813
000280 be 71 be be 7c 7e df 3c c9 57 4f 3b e4 99 eb bb
       -0.37196153 0.027281992 0.0031638017 -0.007189976
000290 48 c0 37 be 5e e7 22 3e 4f 09 cd 3d f7 98 cb 3d
       -0.17944443 0.15908572 0.10011541 0.09941285
0002a0 af 4d 1b bd 6e bb 1f bd 5c a4 2d 3d 5d 3b 60 3d
       -0.03791588 -0.038997106 0.042393073 0.054744113
0002b0 72 1c 0c be 0b ff a2 3d 91 67 66 3e 67 67 44 be
       -0.13682726 0.07958802 0.22500445 -0.1918007
0002c0 d6 f4 47 be 81 3e 56 bc 1e 8d 48 3e 18 39 a9 3d
       -0.19526991 -0.0130764255 0.19585082 0.08262843
0002d0 67 7e b8 be 69 d3 7a 3e d3 17 78 3d ba ea 14 3e
       -0.36033937 0.24494709 0.060569596 0.14542666
0002e0 42 8a 06 be 6e 99 66 be 6c 9b 58 3e 21 e3 69 3e
       -0.13138679 -0.22519466 0.21153039 0.22840549
0002f0 d2 b2 63 3d 52 59 bb 3d 39 31 41 3d e1 5d 38 be
       0.05559046 0.09147896 0.047166083 -0.18004562
000300 2b 4b cf bd 0e 9d 9a 3d c5 2d 3a 3e db a1 c2 3d
       -0.10121759 0.07549487 0.18181522 0.09503528
000310 87 f7 ce be 6a 57 c6 bd bd e5 02 bd fd ac aa be
       -0.40423223 -0.09684642 -0.031957377 -0.33335105
000320 eb 3a c5 3b 20 1e 86 bd 48 0d 01 3e 05 06 34 3e
       0.0060189865 -0.06548715 0.12602723 0.17580421
000330 b1 ec 2c 3e 4e 23 bd bc 59 0c bb 3e 27 68 ba bd
       0.16887166 -0.023088124 0.36532858 -0.09101897
000340 2c 3a 38 3d 1c c1 92 3c 93 fc 62 3e 97 03 2d be
       0.044977352 0.017914347 0.22166662 -0.168959
000350 49 13 4b 3e 40 4b 69 be db 56 12 be 4c c0 d2 3e
       0.19831575 -0.22782612 -0.14290945 0.41162336
000360 a6 29 1a 3e bb 95 b2 bd e1 79 90 3e e9 fe 08 3f
       0.1505495 -0.08719965 0.28217986 0.5351396
000370 77 6d cb bc e8 83 b1 3d 4b 1a 04 be d2 85 97 be
       -0.02483247 0.08667737 -0.12900655 -0.29594284
000380 22 bb f7 3d da 74 7f 3d 3c d8 fc be b0 67 3b bd
       0.120962396 0.062367298 -0.49383724 -0.04575318
000390 4e d7 c4 3d 18 7f 82 be 57 ef 5e 3e 4e ae 24 3d
       0.096113786 -0.2548759 0.21770988 0.040205292
0003a0 0c 5f f7 bd e2 a6 79 3e da c0 52 3e f8 7e aa 3e
       -0.12078676 0.24380067 0.2058138 0.33299994
0003b0 27 1f ab 3d bd b0 db 3d 8d 53 30 3d a4 b4 dd bc
       0.08355551 0.107270695 0.04304843 -0.027063675
0003c0 ff cf 1d 3f 1e e8 1e be 0f 33 02 3d d8 a5 3c be
       0.616455 -0.15518233 0.031786975 -0.1842264
0003d0 be ab c0 bd 9a 95 80 bf d2 ad df 3d ac c4 de 3d
       -0.09407757 -1.0045655 0.109218255 0.10877356
0003e0 84 b8 c1 3e 3e d9 ae bd e5 b4 35 3d aa f3 48 3e
       0.37836087 -0.085375294 0.044361968 0.196242
0003f0 be dd 2e bc 7c 53 e8 3e 33 9b af bd 16 b4 9c 3d
       -0.010672985 0.45376194 -0.08574524 0.07651536

encoder.rnn2.bias_ih_l0 f4 [64]
000000 19 81 8a be 05 90 b8 bd 8f 1c 50 be b1 94 0f 3f
       -0.2705162 -0.090118445 -0.20323394 0.5608626
000010 36 8f 34 be 76 c1 e5 be 87 85 ae 3e 79 93 ed be
       -0.17632756 -0.4487416 0.34086248 -0.46401575
000020 55 22 5d be 85 f5 b1 3c 15 ea b5 3d 23 e8 f2 bd
       -0.21595128 0.021723518 0.08882538 -0.11860683
000030 98 26 3c 3e 72 47 28 be 7a 87 c7 3d 38 6d e0 be
       0.18374097 -0.16433504 0.09742637 -0.43833327
000040 9d 16 f4 bd 49 0c c7 3d cf f8 83 3e df 36 d0 3e
       -0.11918376 0.0971914 0.25775763 0.40666863
000050 e3 2f 06 3e 92 d0 7a 3d ff 86 a9 3e 02 b7 58 3c
       0.13104205 0.061234064 0.33110806 0.013227226
000060 28 e3 9e bd 11 ac 4e 3d 00 49 45 be cd b4 0e 3e
       -0.0775817 0.050457064 -0.19266129 0.13936158
000070 f5 5c c3 3e 22 e3 29 3d 59 13 01 3c eb 58 67 3d
       0.38156858 0.041476376 0.007878148 0.056481283
000080 e5 60 a1 be c5 a5 63 3e ec 3a 47 be fa f9 24 3d
       -0.31519237 0.22231205 -0.1945607 0.04027746
000090 ac bf e1 bd 1d 4c 81 3e 9c ed 05 be c7 e6 40 be
       -0.11022887 0.25253382 -0.13078922 -0.18838035
0000a0 26 91 39 3d 7a 50 f5 bd ba 23 14 be be 13 83 3d
       0.04530444 -0.1197824 -0.14466754 0.0640025
0000b0 fa e2 84 bc 51 f8 87 be 9c 00 d8 3c 59 81 3b bd
       -0.016221512 -0.26556638 0.026367478 -0.045777652
0000c0 10 c3 9d 3e 30 c8 a7 bc 72 ff 1c be 14 98 f1 bd
       0.30812883 -0.020481199 -0.1533182 -0.11796585
0000d0 e3 11 86 3d e0 6a 53 3e 8b 1d cc 3d f3 36 11 be
       0.0654638 0.20646238 0.099665724 -0.14181118
0000e0 56 62 3c bc 4f 0b a8 3a 74 5b b9 be a2 77 51 be
       -0.0114980545 0.0012820753 -0.36202586 -0.20455793
0000f0 2a c3 60 3d 60 c6 e2 bd 47 ed 9b 3e 0b 30 61 3e
       0.054873623 -0.11072993 0.30454466 0.21990983

encoder.rnn2.bias_hh_l0 f4 [64]
000000 b2 90 b5 3d 2c cc db bc 3a d1 ce 3c a2 28 16 3f
       0.08865489 -0.026830755 0.025246251 0.5865575
000010 d4 8f 4b be ad de fa be ee 64 1a bd 09 82 ee bd
       -0.19879085 -0.48998013 -0.03769391 -0.11645896
000020 56 c8 0f 3e 34 8b ae bd f4 5c 1c be 0c 8d 80 be
       0.14041266 -0.08522645 -0.15269834 -0.2510761
000030 35 bd 29 3e c8 fd d6 bd 7d 69 71 3e f6 bf 8f be
       0.16576083 -0.10497624 0.23575397 -0.28076142
000040 d9 02 ab 3e d6 ef 2d 3e 54 c2 9a 3e 38 ba 26 3f
       0.3340061 0.16986021 0.30226386 0.651279
000050 58 60 21 be bf c6 24 3e b0 42 2d 3d 8e 28 ba bd
       -0.15759408 0.1609144 0.042299926 -0.090897664
000060 02 ae 07 3e 53 1d fe bd 34 1d 4f 3e 62 39 48 3c
       0.13249972 -0.12407937 0.20225984 0.012220712
000070 d2 e0 02 3d 6b 19 96 be 55 9e ba bd 72 b9 78 3e
       0.031952687 -0.29316267 -0.09112231 0.24289492
000080 1a c3 48 be 82 53 d0 3e f9 9c 90 3d 3b 7e 9c 3e
       -0.19605675 0.4068871 0.0706119 0.30565056
000090 18 35 d7 bc 3c 26 1a 3e 5d 59 6f be 9c 8e 0d 3e
       -0.026270434 0.15053648 -0.23373933 0.13823932
0000a0 74 aa 45 3d 5e 08 72 3e 5f 5e 34 bd 88 a6 40 3e
       0.04825826 0.23636004 -0.04403531 0.18813527
0000b0 d1 a0 2b 3e 8d e9 44 3d 82 6a 9a 3e 43 56 b3 bc
       0.16760565 0.048074294 0.30159384 -0.021891719
0000c0 75 aa 98 3e 2e 22 ae be 9a 65 e1 bc d4 01 d6 bd
       0.29817548 -0.34010452 -0.027514268 -0.104495674
0000d0 3d ad 0d 3d 2e 1c 94 3e 0c ce c1 3c 0b 27 9a bd
       0.03458904 0.2892775 0.023657821 -0.07526978
0000e0 b4 f6 f0 3d 3e a7 a0 3d 40 ba 99 be eb 90 05 3e
       0.11765805 0.07844399 -0.3002491 0.13043563
0000f0 cb 2d fc bd a8 f0 1f bd d1 62 12 be 79 9b d8 3d
       -0.12313422 -0.039047867 -0.14295508 0.10576529

decoder.rnn1.weight_ih_l0 f4 [64, 16]
000000 94 b2 54 bf b9 4d d5 be 9f 94 6f be b0 1d 98 3d
       -0.8308499 -0.4166086 -0.23396538 0.074275374
000010 67 39 29 3e 33 f4 f1 3e 59 a2 dd 3d fb 74 b3 bd
       0.16525804 0.47256622 0.10821981 -0.08762547
000020 c5 f4 c9 be 89 74 3d bd f4 21 6d be ee 15 f4 3c
       -0.39444557 -0.046253715 -0.23157483 0.029795613
000030 8d 11 4e be b2 18 e4 bd a8 ab 09 3f 78 f9 75 3c
       -0.20123883 -0.11137523 0.5377755 0.015013091
000040 41 1c bf 3e 70 54 62 be 55 0e b7 3d 80 32 92 be
       0.37326244 -0.22102523 0.089382805 -0.28554153
000050 6f 54 af 3e f1 4f d5 3d 11 a4 b4 3e a7 a7 98 be
       0.34244105 0.10415638 0.35281423 -0.2981541
000060 5e 7e a2 3d a6 81 e7 be 98 57 95 3c 70 91 70 be
       0.07934259 -0.452161 0.018230245 -0.2349298
000070 61 47 68 be b0 6c 3b 3e 56 44 af bd e6 1a ba 3e
       -0.22683479 0.1830318 -0.08557956 0.36348647
000080 ed 9e a3 be 6c 24 4f bd 88 56 09 3e a0 9a c3 bd
       -0.31957188 -0.050571844 0.13411915 -0.09550977
000090 96 9a 77 be 50 17 d4 3e 91 72 80 3d 6a e0 b3 bd
       -0.24180064 0.41424036 0.06271852 -0.08783038
0000a0 47 19 e6 bd 46 8e cc 3d 12 4d ea 3c 72 3d 86 bd
       -0.1123529 0.09988074 0.028601203 -0.065546885
0000b0 44 8e 91 3d c1 1d ef bd 46 e7 e6 3d c7 9e 40 3c
       0.07107213 -0.11675597 0.11274581 0.0117566055
0000c0 cc 1c a7 be b7 79 e0 bc c7 e0 9e 3e b0 f7 cd be
       -0.32639158 -0.027401788 0.31030867 -0.40228033
0000d0 d8 1b 74 3e 80 bc 3b 3e 90 79 21 be fe 80 d8 bc
       0.23838747 0.18333626 -0.15769029 -0.026428696
0000e0 00 11 d6 bd c2 d2 9c be 0f c2 5f 3e 02 ea 4b be
       -0.10452461 -0.30629545 0.21851371 -0.19913486
0000f0 35 25 7b be 3c f3 64 3e 48 cb 07 bc 66 8b e0 3d
       -0.24525912 0.22358412 -0.008288212 0.10964088
000100 84 d3 b9 be 80 a6 ec bd f0 e9 71 3e fa 48 d8 be
       -0.36294186 -0.11555195 0.23624396 -0.42243177
000110 71 9a 86 3e f1 fc 10 3e cd e2 c7 3d 45 28 70 be
       0.26289704 0.1415899 0.09760056 -0.23452862
000120 34 16 cc be 8c 5a 5d be f2 14 0f be b0 2d b8 3d
       -0.3986069 -0.21616572 -0.13972834 0.08993089
000130 e3 49 0c be 8c 4a 80 3e 8d 3c 51 be fe e5 9d 3c
       -0.1370006 0.25056875 -0.20433255 0.019274708
000140 34 85 36 bf 9b 8c 6d 3e 2f 63 74 be bb 11 79 be
       -0.71297 0.23198168 -0.2386596 -0.2432317
000150 22 bb 7b be 41 5f b1 3d 89 0c 35 be 2b bb bd be
       -0.24583104 0.08660746 -0.17680563 -0.3705686
000160 0b e9 2d 3e 9c 99 bb 3d db d1 7d be 0f 15 bf 3e
       0.1698343 0.09160158 -0.24787085 0.37320754
000170 29 cf e5 3d a0 32 3a bd ae a5 04 3f e7 05 b2 be
       0.11221153 -0.045458436 0.5181531 -0.34770128
000180 8a 76 dd be 16 85 ca be 58 a1 98 bd b9 b0 9b be
       -0.432545 -0.39554662 -0.07452649 -0.30408266
000190 cb 29 bb 3d 49 f6 b5 3e dd e5 15 3d a3 d2 3a bf
       0.09138831 0.35539463 0.036596168 -0.72977656
0001a0 7d 5f af be 90 20 07 3c 06 e1 5b 3d 05 ff 4b 3e
       -0.3425254 0.00824751 0.053681396 0.19921501
0001b0 e7 cc 85 be e2 72 90 3e 2e 9c 1a be 9e eb 1d 3e
       -0.2613289 0.2821265 -0.1509864 0.15421912
0001c0 94 64 e1 3b 8e 4e 23 be 5f e4 5a 3d 48 18 ea be
       0.006878445 -0.15947935 0.053440448 -0.4572165
0001d0 b7 80 e4 3d 58 cc cd 3e a5 ac f8 3c 40 05 31 bd
       0.11157363 0.40194964 0.03035576 -0.043217897
0001e0 8f fd 34 be 81 e6 9b be 05 96 7d be 18 fe e2 bc
       -0.1767485 -0.30449298 -0.24764259 -0.027709052
0001f0 c9 3d 3c be 90 bd b5 bd e1 ea 1d be 4b 57 18 be
       -0.18382944 -0.08874047 -0.1542163 -0.1487705
000200 8e 64 60 be fe 49 f7 3d fb d4 6d 3e be 44 6a be
       -0.21913359 0.1207466 0.23225777 -0.22877786
000210 8a be cb 3d c1 88 08 be 42 df d5 3e f7 cc 8b 3c
       0.09948452 -0.13333417 0.41771895 0.017065508
000220 fe bf 24 3c 8f d9 6b be 14 95 08 3c 02 30 62 be
       0.01005554 -0.23032211 0.008336324 -0.22088626
000230 c3 83 cb be 7d 06 c9 bd 36 43 21 3b 31 40 06 be
       -0.39748964 -0.09815691 0.0024606711 -0.13110425
000240 5a c8 84 3d f9 ec ab bd 20 53 90 3d 5c f1 68 be
       0.064835265 -0.08394808 0.07047105 -0.22748321
000250 36 53 4e bd fe 8f 25 be cd b9 a6 bc 22 11 28 3d
       -0.050372325 -0.1616821 -0.020352269 0.041031964
000260 8b 8d 7f bd a1 b6 a0 3d 09 1a 66 3e 9c dc 58 be
       -0.062390845 0.07847334 0.22470869 -0.21177906
000270 2e 9a 3e bd 97 3f 1d be e0 bf 3a be f1 c0 8b 3e
       -0.046533756 -0.15356289 -0.18237257 0.2729564
000280 d2 1f 64 3d 3c 82 dc 3d 59 82 f5 3c 02 b4 90 3c
       0.05569441 0.10767028 0.029969381 0.01766396
000290 67 c1 c5 3d 52 8b 7d 3e 42 5c 27 3c 39 a5 3c be
       0.09656029 0.24760178 0.010214867 -0.18422402
0002a0 de 24 c7 bd 0c 2d 7a bd 33 5b 32 3e 76 5d f0 bd
       -0.09723829 -0.061078116 0.17417602 -0.11736576
0002b0 b0 49 07 be e7 eb b5 3e 97 8d 28 bc 73 2f 76 3e
       -0.13211703 0.35531542 -0.010287664 0.24041538
0002c0 af 49 e9 be ea 3a 67 be a1 e7 77 3e 8a e9 2d bd
       -0.4556403 -0.22581068 0.24209453 -0.04245905
0002d0 83 b7 57 3d 02 7d 1e 3f 0c 35 de 3d 6a b5 6d be
       0.052665245 0.61909497 0.10849962 -0.23213735
0002e0 f2 80 95 be 06 e9 ea be ba c3 8c be 5a 06 53 bc
       -0.2919994 -0.45880908 -0.27493078 -0.012879932
0002f0 c1 c0 15 be a6 f6 0f 3d 18 15 51 3e 0f ec 53 3e
       -0.14624311 0.03514733 0.20418203 0.20695518
000300 e8 3d 45 bc bd 4a 50 3e 50 d8 2f bf 1f 28 78 3e
       -0.012038685 0.2034101 -0.6868944 0.24234055
000310 c3 a4 0f 3d 21 2f 99 3d 6f cc d0 be f7 82 56 be
       0.03506924 0.07479692 -0.4078097 -0.20948397
000320 bc 5c b5 3e 7a e0 04 3e 49 f3 bd 3d 78 cf e1 3d
       0.35422313 0.12976256 0.092749186 0.110259
000330 b2 20 e9 3d 83 df 95 bd 5b 17 ce 3e fa 36 01 bf
       0.11383189 -0.07318022 0.40252194 -0.5047451
000340 08 4d 3c be 78 a1 18 bd eb fc d5 be d1 af 40 bc
       -0.1838876 -0.037263364 -0.41794524 -0.011760668
000350 90 1c e2 bd eb 88 a1 3e 8a d6 77 be 44 fa 6c 3e
       -0.11040604 0.31549773 -0.24202934 0.23142344
000360 40 2b 19 3e 9a 06 e2 3d 15 72 0f 3e ef a7 39 3d
       0.14957905 0.110364154 0.14008363 0.04532617
000370 4f b7 6a be 78 00 a1 bd 89 b7 da 3e eb f4 05 3e
       -0.22921489 -0.078614175 0.4271815 0.1308171
000380 af fc fa 3d ea 34 24 3f 2d ba dc bc 81 3b da 3e
       0.12255227 0.6414324 -0.026944244 0.42623523
000390 4d 49 9b be 3d f1 12 bf d6 3a d8 be 02 3e 71 3e
       -0.30329362 -0.5739935 -0.42232388 0.2355881
0003a0 9e 4b 8b 3e df 12 23 3e 13 db ed 3d 25 4e d6 bc
       0.2720613 0.15925168 0.11614051 -0.02616031
0003b0 28 6a ff 3d 72 5b 24 be 53 df 79 bd fd 53 43 be
       0.124714196 -0.16050509 -0.061003994 -0.19075008
0003c0 26 1f 81 3e 9a de e3 3a 19 3f 00 3e 5b fe b9 3b
       0.25219077 0.0017385066 0.1252407 0.0056760735
0003d0 0d 30 fe bd 62 ea 0b be 2c ce 86 bd 27 3b a1 bd
       -0.12411509 -0.13663629 -0.06582293 -0.078726105
0003e0 49 2f 96 3e b4 61 54 be 34 0b 5d 3e f1 9d 8d be
       0.2933295 -0.20740396 0.21586305 -0.27659562
0003f0 a9 54 47 be e7 26 8d 3d 3a f6 90 bd 9d 3b 42 3e
       -0.19465889 0.06892186 -0.07078214 0.18968053

decoder.rnn1.weight_hh_l0 f4 [64, 16]
000000 72 ee 94 bc c9 59 bc bd 52 db a9 be 60 bf 3c 3e
       -0.018180106 -0.09196813 -0.3317514 0.18432379
000010 36 fd 7b bd d1 7b ee bd fe 5b 1b 3e 08 83 05 be
       -0.061520778 -0.1164471 0.15171811 -0.13038266
000020 d0 81 0c bd 43 51 b1 3d b2 ce 23 be 20 e9 e3 3d
       -0.034303486 0.086580776 -0.15996817 0.111284494
000030 3a 07 1a be f4 2a c2 bd 47 8a 3a 3e 15 b1 26 3e
       -0.15041819 -0.09480849 0.18216811 0.16278489
000040 9b e3 01 be 1b d4 8a be cd f1 43 3d 6f 8f 3e bd
       -0.12684481 -0.2711495 0.04783802 -0.046523508
000050 b8 af 41 3e 55 59 cb 3d 67 d2 d7 3e cf 4f 2d 3d
       0.18914688 0.09929148 0.42152712 0.04231244
000060 12 e0 21 be 75 43 bb be 1c cb 01 3e eb 92 f6 bd
       -0.15808132 -0.36574903 0.12675136 -0.12039741
000070 b5 de d3 3d dd cb 83 be 12 39 85 bd 1f 03 ab bd
       0.10345212 -0.25741473 -0.06505026 -0.08350205
000080 47 ed 82 3e af ea 16 3e e4 b1 d3 be 25 8e 6b be
       0.25571653 0.14737962 -0.41346657 -0.23003443
000090 71 a7 08 3e 9f a9 68 3d 87 02 2e 3e 40 52 a7 be
       0.13345124 0.05680239 0.16993152 -0.3267994
0000a0 42 60 84 be f6 f0 17 3e ac 53 7e 3e 73 65 a4 3d
       -0.2585469 0.14838013 0.24836606 0.080271624
0000b0 05 bc 32 3e 5a 8e 33 3e fd 7c f0 3e 0b e4 5d be
       0.17454536 0.17534772 0.46970358 -0.21669023
0000c0 1f 99 a1 3e d6 d3 93 be 59 30 e7 3c 05 b5 a8 3e
       0.31562135 -0.28872555 0.028221296 0.32950607
0000d0 24 4f 71 be 1d c9 cd 3d 13 30 b4 3a 4f 5e d1 3e
       -0.23565346 0.10048125 0.0013747237 0.40892264
0000e0 79 ef cc 3e 7e bc d0 bd 6e 2b 8b be 72 43 d3 3e
       0.40026453 -0.10192202 -0.27181572 0.41262394
0000f0 f1 9d a6 3e 19 7d c6 be b6 8e 84 3e 16 70 27 3e
       0.32542375 -0.38767317 0.2589013 0.16351351
000100 77 2f 16 3f 70 f9 11 3d e5 06 d2 bd 5f e8 38 be
       0.58666176 0.035638273 -0.10255221 -0.18057393
000110 99 2e b3 3c 49 b2 ec 3b 02 05 76 be 28 6e 6d 3e
       0.021872805 0.0072234017 -0.24025348 0.23186553
000120 0f 35 26 be a3 25 6b be 98 fb 01 be 16 fd 91 3e
       -0.16231178 -0.22963576 -0.12693632 0.28513402
000130 76 e8 c9 3d f9 18 d8 be f5 f3 af 3e 5b 0f e0 bd
       0.098587915 -0.42206553 0.34365812 -0.10940429
000140 a8 68 d8 3d 04 bd 0b 3d 5a 63 f1 bd 9c 16 01 3e
       0.105668366 0.034115806 -0.11786528 0.12606281
000150 64 89 54 be 1a f2 a0 3e 63 42 ab bd e2 68 19 be
       -0.20755535 0.3143471 -0.08362272 -0.14981416
000160 f3 eb 58 3e 1a f6 a9 3d 70 88 0a 3e 67 9e 95 3e
       0.21183757 0.08298893 0.1352861 0.29222414
000170 1a 7a a9 3d 32 9e 4a 3d e4 5e d3 3e 5d bf e2 3d
       0.08275242 0.049467273 0.41283333 0.11071656
000180 70 32 4f 3e fe 8b eb 3d a9 f3 c7 bd 1a 79 00 be
       0.20234084 0.11501311 -0.09763271 -0.12546197
000190 1a 28 2e 3e a1 8a bd 3d da c1 f4 bd 7b e6 51 be
       0.17007485 0.09254957 -0.11951037 -0.20498078
0001a0 fe a5 cd bd 46 9c 39 3e e6 78 0c be a9 fd 02 3e
       -0.10041426 0.1812602 -0.13717994 0.12792076
0001b0 66 63 95 3e 8a 13 8e be b0 02 a8 3e 0c 68 4b bc
       0.29177397 -0.27749282 0.3281455 -0.012414943
0001c0 1b 43 1e 3e a9 88 68 be c4 8f 91 be 2c cc 57 be
       0.15455286 -0.22708382 -0.28429997 -0.21073979
0001d0 32 c0 36 3e cf f7 1e be b0 62 2f be 5c e2 32 3e
       0.17846754 -0.15524219 -0.1712749 0.17469162
0001e0 c6 bc b7 3d 10 26 85 be 6c 3b cc bd f5 f7 4a 3e
       0.089715526 -0.26005602 -0.09972271 0.1982115
0001f0 27 ee 0f be a6 cb 9e be 94 38 9a 3c b1 13 85 3e
       -0.14055692 -0.31014746 0.018825807 0.25991586
000200 e0 a9 72 3d 7d da b9 be b7 a1 ba be 00 42 87 bd
       0.059244037 -0.36299506 -0.36451504 -0.066043854
000210 fb d0 b0 3c 9a e0 ac 3e 84 86 b2 bd 6a 23 9c bc
       0.021584025 0.33765107 -0.08717063 -0.019059855
000220 4b 4e db 3d 7f 28 e9 bd 38 fb 8b 3d 99 bd 18 3e
       0.107082926 -0.11384677 0.068350255 0.14916076
000230 9b 1f 44 3e ba 04 b5 bc 6c 65 0c 3e 28 30 15 3e
       0.19152682 -0.02209698 0.13710564 0.14569151
000240 07 14 20 3e 22 69 8d be 63 11 96 bd 67 34 a3 3d
       0.1563264 -0.27619272 -0.07327535 0.07968979
000250 00 0b 44 be 17 91 6c 3d 4b 0e d5 3c fe de 39 ba
       -0.19144821 0.057755556 0.026007792 -0.00070904184
000260 03 a5 9e 3e 7d b4 d8 be f5 a1 84 be 9e ef aa bd
       0.3098527 -0.42325202 -0.25904813 -0.083464846
000270 d5 1f 20 3d be 2a 79 bc 11 33 4e be 6b d0 b1 3e
       0.039092857 -0.015207944 -0.20136668 0.34729323
000280 07 fb ca 3d 79 a0 46 3d 04 c3 82 be 63 62 3d be
       0.09911161 0.048492882 -0.2553941 -0.18494563
000290 bc 30 18 3e 74 4d 95 3e 25 a9 75 3e b5 da ac 3e
       0.1486234 0.29160655 0.23990305 0.3376061
0002a0 98 aa a6 3e 2b 18 93 bd 2d aa 7f be 6d 1c 6d be
       0.32552028 -0.07182344 -0.2496726 -0.23155375
0002b0 e6 66 df bd 1a 83 75 be ed 61 4b 3e 24 74 b7 3e
       -0.10908298 -0.23975793 0.19861574 0.35830796
0002c0 43 68 8f 3e 01 ab c3 bd a4 43 17 be 1f 55 3e 3e
       0.28009233 -0.09554101 -0.14771897 0.18587159
0002d0 51 e8 5a 3e d1 54 a9 bd 56 6a 5b bd 31 2d ae bd
       0.21377684 -0.082681306 -0.053568207 -0.08504713
0002e0 37 38 01 3e 46 09 fc 3c 2d 2c 61 3d e8 e2 8e 3e
       0.126191 0.03076614 0.05497377 0.2790749
0002f0 69 93 d4 bd bc c8 66 be 43 84 de 3e c2 e9 4f 3c
       -0.10379679 -0.22537512 0.43460283 0.01269001
000300 5f fd 8e 3e 52 5f a9 bd a0 98 85 be 87 d1 89 3e
       0.27927682 -0.08270134 -0.26093006 0.2691767
000310 c9 ee da be 5f 90 8d 3b 21 e7 cc be ca c7 4d bd
       -0.42760304 0.004320189 -0.40020087 -0.05023936
000320 78 0c 15 be 9b 14 9f 3d f0 d9 30 3d 7a 31 06 3e
       -0.14555538 0.07767602 0.04317659 0.13104811
000330 d5 ac d4 3e 85 40 98 be d9 fe 31 bd 01 8e 35 be
       0.4153811 -0.29736724 -0.043455932 -0.17729951
000340 47 5c 9e 3c fb ed 87 3e ab 65 e5 3d 4c dc 7c 3e
       0.01933111 0.26548752 0.11201032 0.24693412
000350 bd 7d 50 bc a5 4c 04 3e 65 b8 11 bd d7 7c 0c 3e
       -0.012725291 0.12919863 -0.035576243 0.13719498
000360 8c 31 82 be ee 2f 03 bc ab 30 51 be 99 42 b4 3d
       -0.25428426 -0.008007033 -0.20428722 0.08801765
000370 bf 33 aa bd 9e 0a bf be 05 88 c3 3e 2b 31 0d 3e
       -0.08310651 -0.37312788 0.38189712 0.13788287
000380 9e 05 24 3e 28 0d 46 be 1b 7d a3 3d 32 fa 42 3e
       0.16017768 -0.19340956 0.07982846 0.19040754
000390 ed c0 aa be 53 67 12 3e 6c f8 44 3d 7d 86 f7 3e
       -0.33350316 0.14297228 0.048088476 0.48344794
0003a0 1a a6 01 3e 6f a8 f2 be 87 a5 13 bf 95 6e c8 be
       0.12661019 -0.4739413 -0.5767445 -0.39146867
0003b0 c8 59 64 bd 2f 4a 91 3e a4 e6 3a bc 7c f8 1c 3f
       -0.055749685 0.2837691 -0.011407528 0.6131666
0003c0 de 08 e3 3d 28 58 2d be 0e 53 10 3d 82 f5 52 3e
       0.11085676 -0.1692816 0.035235457 0.20601466
0003d0 f1 2f da be f2 8c f7 bc 75 f6 23 be 94 16 60 3e
       -0.426147 -0.030218575 -0.16011985 0.21883613
0003e0 2f 96 5f bd e6 e8 da bc fc 51 e6 bd 56 22 bb 3d
       -0.054586586 -0.026722383 -0.11246106 0.091374084
0003f0 2a 74 18 be e8 d6 a0 bd 10 da 26 3d 81 af 46 3e
       -0.14888063 -0.0785349 0.040735304 0.19402887
